SparkPy/b1.npy (npy, 2480 bytes, 1 tensors)

array f8 [300, 1]
000000 86 d5 d9 4c 6f 03 bd 3f a5 fa ba 43 a3 dc bd bf
       0.11333366037600542 -0.116647914920558
000010 03 e3 91 e2 80 af a0 bf 30 6c e5 94 79 1e ca bf
       -0.03258898511643873 -0.20405502100297346
000020 cd bb 5f 18 eb 94 c1 bf cd 57 54 6a 1a 63 a2 3f
       -0.13735712709555373 0.03591234729735469
000030 96 41 28 19 df eb b4 3f 73 1b 46 1b 15 e3 7a 3f
       0.0817241131228513 0.006564218947807332
000040 0a f1 9a f8 de 38 a6 3f 58 7a 6b 84 87 f1 b7 3f
       0.043402641150779145 0.09352919562250273
000050 8e 01 29 40 64 73 b0 3f 5b 9d e0 05 11 cb 70 bf
       0.06426073614512104 -0.0040999093016929845
000060 e8 c4 bd ce 1e 42 a5 bf e5 64 df c2 ef 80 b0 bf
       -0.04152008317658745 -0.06446741588242196
000070 68 c8 d6 dc 93 f7 a2 3f be e3 7e 4a 95 e1 a7 3f
       0.03704511709965247 0.04664293798800355
000080 0b 56 a0 19 33 4f 86 bf 7c 28 ee 7b 63 1b 9f 3f
       -0.010893248767426497 0.03037791675482325
000090 b9 b9 46 cd 0a ca ae 3f d8 40 50 c6 66 aa a9 bf
       0.060135209615839576 -0.05012818499392474
0000a0 14 da 6d f9 11 3c 96 bf 86 29 af 9d 69 3c a4 bf
       -0.021713524674362786 -0.03952341127258578
0000b0 4f 75 39 09 a1 3d 9b 3f d1 e8 63 e9 2e b3 b1 bf
       0.026602283657088773 -0.06914036939625424
0000c0 4a 93 92 e2 00 90 c1 3f 88 e0 ba 33 86 9b a7 bf
       0.13720713675606994 -0.04610843068570697
0000d0 43 91 46 b3 ae 06 9f bf df ed 98 21 42 09 84 bf
       -0.03029892892085796 -0.00978328385382715
0000e0 55 d4 7c 7c 35 1e a5 bf d9 03 bb 37 da 8f 94 bf
       -0.0412461008512898 -0.02008000340606828
0000f0 75 9d 51 a0 6b 80 73 3f 17 3b 7a 04 97 a0 a8 bf
       0.004761143126507651 -0.04810020379692597
000100 e0 e9 0e a5 e7 a3 c0 3f 6b af 45 12 e5 0d c1 bf
       0.13000197944150127 -0.133236535951592
000110 1c a8 f6 e7 f6 8d a8 3f 9d 11 cb b9 8c f1 c2 bf
       0.047958103004319436 -0.14799651214538026
000120 7f 23 19 e5 92 9b b3 bf a5 eb 21 d2 b5 47 b0 3f
       -0.07659261792390558 0.06359421138942752
000130 84 9a b2 c6 d3 f5 c5 3f 26 89 40 35 78 e6 bf 3f
       0.17156455232653312 0.12461043644046707
000140 4e 40 fb f2 61 ff 97 3f 60 33 61 f6 5e a4 c4 3f
       0.023435144858752026 0.16126620321520146
000150 89 b5 f7 dc 24 27 b9 3f f4 16 97 25 90 ca 8e bf
       0.09825353998868115 -0.015034795901452715
000160 43 e9 4a 1b 7e 4c bb bf 25 cd 77 86 75 56 ca 3f
       -0.1066359345085504 0.20576352182215732
000170 cb 42 81 4b 43 22 87 bf e0 75 f0 a6 81 0e b9 3f
       -0.011295819989898167 0.09787760091463538
000180 f0 3a fc 2c c8 cb a1 3f 12 4b 7b 5a 86 55 a1 3f
       0.034757857791296476 0.03385562757980244
000190 eb c8 02 95 68 0b 76 bf 7f 47 8e a5 3f 54 b2 bf
       -0.005381973766065177 -0.0715980319203293
0001a0 b9 42 b5 7c 61 93 a3 3f 66 ed c2 8d c6 69 85 bf
       0.03823380133929306 -0.01045565719720427
0001b0 f8 58 df 46 76 69 ba bf ee 2c 84 b9 d9 9d b7 3f
       -0.10317172270092445 0.09225235728461076
0001c0 03 95 64 03 c5 8b cf 3f ad dc 8b aa 42 b0 d0 bf
       0.2464529291693581 -0.26075808195987343
0001d0 25 a5 c0 21 47 b1 c0 3f 6d 33 35 b5 78 a9 7f 3f
       0.13041009090492497 0.007729980006229248
0001e0 10 d1 9b b8 38 1d c5 3f 26 cb 57 75 4f e5 ad bf
       0.16495427145094554 -0.058390124391641415
0001f0 fb 46 a1 17 3d a9 ae 3f a1 58 a1 7b 75 f2 83 bf
       0.05988493836833971 -0.009739797435184551
000200 a8 c5 5b 56 8c 15 8c 3f dc 1e 04 33 52 bb 94 3f
       0.01371297491593533 0.02024582325341738
000210 06 c7 d5 bb be 72 a5 bf 43 f3 cf 70 d3 ed bc 3f
       -0.041891060284696066 0.11300393585402184
000220 dd 0b f9 c3 e5 58 bc bf 8f c7 d6 dd 9b b9 9a bf
       -0.1107314685296354 -0.026098666586853943
000230 b6 c9 a3 09 c7 cf 96 bf 59 c0 48 7a 3d aa 93 3f
       -0.022276983226171963 0.01920410212386545
000240 ad 3b 05 3c 30 62 c2 3f 43 8b 63 4b 66 98 9f 3f
       0.14362147265134464 0.030854795791025024
000250 ee 75 34 f1 3e fc a2 3f 44 b0 43 35 70 3c b5 3f
       0.037080733245811945 0.08295346546555132
000260 38 56 10 8c ff f1 ba 3f f7 f8 3a d0 d0 82 b0 3f
       0.10525509995962856 0.06449608882664735
000270 5c 77 1f 26 75 68 87 3f 0d eb 05 02 ab 08 9b bf
       0.011429705835265196 -0.026400253294450105
000280 00 10 f3 a5 6f 59 96 3f b6 b2 10 7a 07 3b a4 3f
       0.021825546745063207 0.03951285710386314
000290 e1 d2 eb b9 c7 52 9f bf eb de 3d d1 9a ef be bf
       -0.030589218828896206 -0.12084357841910857
0002a0 92 8a d7 32 8b d5 7f 3f cc c1 79 62 9a f1 c1 bf
       0.007772010559593883 -0.1401856404149967
0002b0 0c 8c 71 1d 42 da b5 3f 41 0f ab 71 f0 2c b0 bf
       0.08536160677753929 -0.06318571829893661
0002c0 54 95 8c 9f 3d ac b8 3f 07 67 5e a0 ab 1b a3 3f
       0.09637818475001342 0.0373204835188528
0002d0 46 a8 be 79 56 62 b3 bf bc 4e b3 9e 1e 7f a2 3f
       -0.07571926567348539 0.036126095650300866
0002e0 fc 09 63 b4 87 34 9d 3f a9 98 83 08 46 0b 94 3f
       0.028520698914471496 0.019574255246788273
0002f0 7f c6 f4 0b 48 c6 88 bf 74 b6 49 73 7c 15 b7 bf
       -0.012096941819069727 -0.09017160238882999
000300 eb 26 dc 41 3f 3d c0 bf 2d 98 01 19 ac 42 75 3f
       -0.12686911311930457 0.005190536743702662
000310 ce 13 b1 b3 d2 e4 c7 3f 3a ab 0a 77 29 74 9f 3f
       0.18667062543877794 0.030716560259558913
000320 45 b6 0d b9 77 e0 9a 3f 0c e3 4a 97 c5 60 86 bf
       0.026246901197217083 -0.010926765136319648
000330 00 6c 79 fb 50 12 a6 3f 57 03 7f 72 60 9a ab 3f
       0.04310849256281557 0.05391217610986725
000340 73 c0 83 ed 29 46 c0 bf 50 11 40 34 41 1d ad 3f
       -0.12714122865100172 0.05686382067509277
000350 df 37 ee 33 2e b4 b5 bf 8f 01 43 2e ad 48 c3 bf
       -0.08478058593593073 -0.15065541037439487
000360 01 93 44 eb 9d 81 a0 3f 1f 52 c1 1d 1f cf a8 bf
       0.0322388982479307 -0.04845521200391922
000370 85 c4 6d 2d 4b 64 ab 3f 71 2a 23 34 9e 5b bc bf
       0.05349955491591011 -0.11077297947773858
000380 8d 2e 45 bc e4 64 b0 3f 23 99 6d 19 5e fc 75 bf
       0.06403951260034031 -0.005367629600050247
000390 ef 9a 8a 10 a6 55 9c 3f 57 1a d7 d8 a6 fb b0 3f
       0.027670473823174054 0.06633990091277418
0003a0 08 7c bd 99 fa 6a ba bf 1b e9 3b 7b e3 a5 b7 3f
       -0.10319486859724247 0.09237500914233403
0003b0 ba 52 0e a4 af 08 83 3f d0 de b8 46 28 1e 9e 3f
       0.00929391116532351 0.02941191608098742
0003c0 f5 b6 da b6 13 0a b9 bf ba 2c 56 0a 97 4e 80 bf
       -0.09781001295297272 -0.007962398531864746
0003d0 26 f5 6d 34 a9 d7 c3 bf d2 1e d8 3d c3 1c a6 bf
       -0.15501895008120775 -0.04318819169935541
0003e0 8e c1 6e 01 df be af 3f 7b 00 ca 4e 9c 47 a8 3f
       0.06200310604561131 0.04742134534626615
0003f0 e1 43 02 f6 5d b0 8e 3f fa 24 67 99 a7 2f 8a bf
       0.014984830923170324 -0.012786206597314099
000400 3d b2 31 be 0d 52 af bf a8 60 b7 75 05 2d 8e 3f
       -0.06117289492326392 0.014734308867375326
000410 7b ee 43 0b b5 da c6 bf 7d 27 be 85 3a d4 ae bf
       -0.17854941415849965 -0.06021292574503343
000420 24 84 fc 1e de b2 aa 3f 4b 47 7f b4 cb 5e 87 bf
       0.052145901949423284 -0.011411277242504922
000430 e8 5e 6d fa 2e 5e a2 3f 73 69 e1 b1 bb fa b5 bf
       0.03587481314633384 -0.08585713475023286
000440 7c 42 f3 86 f0 d7 8b 3f cf dc ec ef 44 e7 b3 3f
       0.013595465772966657 0.07774763925123128
000450 b3 77 3b 0c 2c 57 7e 3f 78 da 49 94 5d c4 b0 bf
       0.007407352506303799 -0.06549630041431864
000460 5a 1f ab f6 71 93 c2 3f cd 7b 1c 44 53 6f c2 bf
       0.14512466949804087 -0.1440223772596866
000470 ff 58 a0 bd 29 ac 9d 3f d6 f2 ef 52 5e 46 8c 3f
       0.028977062415003193 0.013806092172666078
000480 60 ec e8 6b f3 44 a4 3f 99 77 76 c5 27 49 b8 3f
       0.03958855335482592 0.09486626215809081
000490 c6 46 4b 6d a7 69 be bf a3 fd f6 67 a6 78 b4 bf
       -0.11879965227424369 -0.0799659732647258
0004a0 8d 8d 33 0c 3f 51 b2 bf 62 5b 86 90 a2 43 9f bf
       -0.07155221984753819 -0.030531444617362687
0004b0 f5 f3 19 2e 6e 09 c5 bf b6 e5 e1 b7 2a 13 53 3f
       -0.16435029269260296 0.001164237706261379
0004c0 e4 02 c3 ea dd 4b 88 3f 22 37 23 b0 94 21 85 bf
       0.011863454558239402 -0.01031795656708884
0004d0 ac 98 ad 3e 78 67 95 bf db 8e 89 5b dc 21 a3 3f
       -0.02090251810604886 0.03736771218680498
0004e0 42 30 5e 06 2c 25 9d 3f b3 21 d9 28 e8 8a ad 3f
       0.028462112320582607 0.057700400339459355
0004f0 1b c4 b1 1a 2c 2c c5 3f d4 b7 6a 39 6b 74 ce 3f
       0.16541053107678824 0.23792782119329436
000500 d1 9a 9c a4 e0 54 99 bf a3 ee 58 9e c3 73 ac 3f
       -0.02473784451208411 0.05557071025802187
000510 27 20 15 44 94 99 cf bf fa ed cb 46 28 d7 a9 3f
       -0.2468743641313733 0.05046964515892323
000520 76 04 28 f6 e9 7b 8a bf 1f 27 7a b5 09 41 cd bf
       -0.012931659531206768 -0.22854729996861864
000530 24 d2 1b 78 7a e8 bd 3f 33 b5 5e 5f ef 5a 83 3f
       0.11682858879414276 0.009450788591346715
000540 b3 fc 28 d0 1c d9 9d bf 28 41 c7 9c 72 8b b9 3f
       -0.029148531155666912 0.09978405311199323
000550 44 26 71 7d 9c 4a b9 bf 1a 33 28 87 3a c7 80 3f
       -0.09879472792194927 0.008192498445191588
000560 56 c2 9f 1e ca 65 c0 bf 32 a6 3e 0c f1 16 bf bf
       -0.12810636992755303 -0.12144381092971271
000570 9d 5b e9 2d a9 47 95 3f b9 62 fe 61 bd b6 b4 bf
       0.02078117697450531 -0.08091338770317237
000580 2f 1a b2 86 6f 4a b9 3f 8f 5d 54 d9 2f 0b bd bf
       0.0987920478674844 -0.11345194869897156
000590 24 d4 76 26 4a 10 ad bf 87 45 59 93 cc d8 ba bf
       -0.056764905162175944 -0.10487059209233084
0005a0 67 5f 0c 7f 5c 96 c2 bf ac 54 2b 95 83 5f a3 3f
       -0.1452136631348779 0.037838088950289034
0005b0 73 2c 7a 05 fc 00 c5 bf 2b cc fa c4 9d 61 7f 3f
       -0.16409254329150577 0.007661453520699839
0005c0 05 10 ad f5 63 eb ab bf f3 e5 7c 03 87 15 9e 3f
       -0.05453026174521373 0.02937899550236085
0005d0 d9 09 3d 44 d5 80 c2 3f d7 8a 7a b9 14 18 c0 3f
       0.14455667335467018 0.1257348924310324
0005e0 2b cb 8c 63 70 c1 9d bf 95 0a 3c 83 76 ab b7 3f
       -0.02905822379689053 0.09246006683319259
0005f0 2e de 0f eb 57 5d 96 3f cc 03 09 60 cf 44 a0 3f
       0.021840451929135245 0.03177497908882962
000600 28 2f 59 6f 28 1e bf bf be 70 67 b7 41 68 82 bf
       -0.12155392378298002 -0.008987916383312086
000610 1f f1 bf f2 3d 36 c8 bf a0 45 59 08 51 af cb 3f
       -0.18915533402458437 0.21628773601200368
000620 df c5 2c e3 6f 3d c1 3f 18 66 b6 2c 92 dd 93 3f
       0.13468741028331885 0.019399913767847193
000630 7d 18 7f 3f 71 df b6 3f 66 2c 2e 97 0d ef 96 bf
       0.0893469600697205 -0.022396290161435316
000640 6d e8 9f 56 3e cf 87 3f c9 dc d5 11 3e e8 a9 3f
       0.011625754374098041 0.05059999435155189
000650 46 6b cb df c3 16 c4 bf 17 5f f7 d3 05 93 a7 3f
       -0.15694473674269654 0.0460435696838301
000660 08 e7 96 d0 c5 74 cc bf 81 01 c0 94 74 66 a4 3f
       -0.22231362042457925 0.039844172628366266
000670 1c 5f 65 5c 1d d2 8f 3f 4e 80 cc 55 07 85 93 3f
       0.015537480718804945 0.019062151538605847
000680 84 5e 6a c8 d4 e1 89 3f 99 dd 8e 7f 60 86 ba bf
       0.01263777004832823 -0.1036129294797007
000690 0d 52 2c dc c2 ca b6 bf 8c e5 81 f5 4c 76 c3 bf
       -0.0890313899547623 -0.1520477484480519
0006a0 ac 8d 1d b6 07 60 b3 bf 0c 22 cb 7b b3 67 95 bf
       -0.07568405338456924 -0.020903400831942462
0006b0 7c 94 70 3b a2 a8 85 3f 15 1f df ca 44 c6 95 3f
       0.010575549544294065 0.021264147646234372
0006c0 6d 4e 5a 77 2e bc bd 3f f8 a7 f2 6c e5 08 92 3f
       0.11615267194638941 0.017612061285639385
0006d0 f6 3d 1c b2 48 2b cf bf e0 6c 3b 0e 9b b4 97 3f
       -0.24350842186730376 0.023149893516216546
0006e0 75 a9 37 61 c6 87 bd 3f 31 71 5c 15 6b 8e cf bf
       0.1153530108782997 -0.24653376143477027
0006f0 9e 0d 51 54 61 b6 bf 3f 49 f2 41 76 3c a3 c2 3f
       0.12387665089140973 0.1456065728597358
000700 a1 3c 5b bf bf be 9f bf 5b 70 2a 62 f5 7a ac bf
       -0.031001087240664863 -0.055625599129798
000710 f7 37 39 45 6f 01 c9 bf c3 3a 72 20 0d 4a c4 3f
       -0.195356282043974 0.15850986561095767
000720 a4 e7 3e b1 e0 06 c1 bf e4 15 63 35 e8 08 d2 3f
       -0.13302239088608048 0.281793644080919
000730 ab db fa d2 f5 24 c3 bf 71 79 83 96 b8 3f a1 3f
       -0.14956543733361846 0.033689278004873986
000740 b3 08 33 2c 69 1b b5 3f aa b8 37 2d b1 a6 ae bf
       0.08244950608335237 -0.05986550976727874
000750 7c 23 85 7e b6 d2 d0 bf b7 d9 74 6f 83 63 43 bf
       -0.26286089282489633 -0.0005916969084072608
000760 1a 9f 9b 31 1a 1d c3 bf 52 ef f2 94 7b a6 a3 bf
       -0.14932563230763024 -0.038379537517782794
000770 af 65 93 1c 35 f1 c4 bf c8 9a c3 49 3b 59 c3 3f
       -0.16361106772710118 0.1511606321502852
000780 64 8f 7f 76 8a b6 c9 bf 20 42 09 00 39 a3 ca 3f
       -0.20088320528077042 0.20810616018072015
000790 5d af 09 2a 54 bc a4 3f a3 a2 65 a5 5c 7d b1 bf
       0.04049933446080332 -0.0683191207696248
0007a0 7f 37 ce 7a 9f d2 54 3f 2d 1d 1a 02 22 0d a9 3f
       0.0012709195536646232 0.04892832065257333
0007b0 fa 25 6a 46 60 a8 b6 3f 67 5e a5 4f 57 bd c7 bf
       0.08850671500308485 -0.18546573056186164
0007c0 ae e5 e5 41 9e 0e 84 bf 4e 79 ba fd 84 0a a2 bf
       -0.009793506990478953 -0.035236507389742586
0007d0 03 54 92 9d c6 69 9a 3f 30 f4 41 08 78 06 cd 3f
       0.025794127814680944 0.22675991442875576
0007e0 34 4c f1 5a 35 99 a1 3f 65 91 8a 41 ee d6 91 bf
       0.03437201247347624 -0.01742145800621255
0007f0 cc 8f b9 c2 6e 18 93 bf 4b de 2f f1 d3 75 9d bf
       -0.018647890696584388 -0.028769790264020306
