SparkPy/W2.npy (npy, 24080 bytes, 1 tensors)

array f8 [10, 300]
0	0x3fbc6a6c56889d40	0.11099888908994604
1	0x3faf341a0b8f25f1	0.06094437972167189
2	0x3f9cdd7521a112b9	0.028188543489039406
3	0x3fb244c40db2c172	0.07136178335600166
4	0xbfb59c47c1b62da3	-0.08441589812553345
5	0x3fca6c6ba8f76851	0.2064337325126098
6	0x3f9b7ca9d2a9cd7e	0.026842740519396717
7	0xbfb34f06139f7ed5	-0.07542455653264864
8	0x3fb520a2e843c1ae	0.08252924128078717
9	0xbfa458a9015aa946	-0.039738923468876794
10	0x3fb7114dae7ab34d	0.09010777959583756
11	0x3fc594ba2fd11d45	0.1686012967568137
12	0x3fc5a9fc61fbf4dd	0.16925005707154286
13	0x3fca34f7accc9478	0.20474143922288923
14	0xbfbe04d09710d96d	-0.11726096809511484
15	0x3fbbf9751b62c1dd	0.10927516859624782
16	0xbf6421819be7ba21	-0.0024573832918044635
17	0xbfa2a4b2e903dcf4	-0.03641280264303673
18	0xbfa1d52bd7bd6495	-0.03482949265043903
19	0x3f9195ce1c449996	0.017173023677196385
20	0x3fb90e8a060fa5c1	0.09787809989906916
21	0x3fb17ebcf914f1bc	0.06834012108897175
22	0x3f90905f2c89c341	0.01617573460902411
23	0xbfb9ba9354fdae14	-0.10050316643690166
24	0xbfa71ec4f872c685	-0.04515662701431914
25	0xbfb1c5f067110f80	-0.06942656055713137
26	0x3fc42be2335d39ce	0.15758922107711587
27	0x3fb7c067ef89a931	0.09277963255013756
28	0xbfd62746c3afb956	-0.34614724264146923
29	0x3f843514a9b22582	0.009866868427951262
30	0x3fb277631d713d8f	0.07213420361335053
31	0xbfa1fd55aa27b905	-0.03513591482247772
32	0xbfbed6ff844194bc	-0.12046811083708325
33	0xbfd13fcb71e2bcdc	-0.2695187198796256
34	0xbfa2875cd2910fa0	-0.03618898458856212
35	0xbfb8de18ad88642d	-0.09713892208709814
36	0xbf7c851e7a3e6aae	-0.006962889721672623
37	0xbf9c1b3c556b2057	-0.02744764586785239
38	0x3fad40b66935a3d0	0.05713434252067595
39	0x3fb2de0924fb5624	0.07370049622417035
40	0x3fb24e885e2e0cdf	0.07151081370652744
41	0xbfb75676dcf48150	-0.09116309065257622
42	0xbfb9d4b97e8295b5	-0.10090216959596073
43	0x3fc508e549f5bda9	0.16433397399258112
44	0x3fb270fb1c1d2df4	0.07203645168663525
45	0xbf9c6da5da47abcd	-0.02776202339911631
46	0x3fc27fe32ff3e4d0	0.14452781526032377
47	0x3fc8d962ea0ce6a9	0.19413410595170902
48	0xbfc98147f48994f0	-0.19925784530929702
49	0xbfa54fc0105ce0af	-0.04162407111874821
50	0x3fbe5d56a4f8b0d7	0.11861173179267169
51	0xbf9f0fa20e7017d3	-0.030333072787492043
52	0x3fca9f56f586ddc7	0.20798766125311216
53	0x3fb1258ad6c18675	0.06697910063805941
54	0xbfa8898778d130e9	-0.047924264429271286
55	0x3fa550747b559cc1	0.04162944798991353
56	0xbfdc0586491309a4	-0.43783719192665616
57	0xbf906d8692213e1d	-0.016042807263430093
58	0x3fbb0ab36b2bfb2b	0.10563203207491927
59	0xbfaae86e5076b88a	-0.05255455715392639
60	0x3faa30e4c253c7d6	0.05115427848967584
61	0xbfa3da8aa4d14091	-0.03877671491557167
62	0x3fadd2379dab8d71	0.0582444553345124
63	0x3fc1feee10d2c3f1	0.1405923444886237
64	0xbfa51b894a3cafe7	-0.041225710212841986
65	0xbf952ccf113e914d	-0.020678744723811083
66	0xbfbb160c04009d6f	-0.1058051595469942
67	0x3fc0e053dda942b8	0.13184593509006048
68	0xbfa2b682581d4621	-0.03654868436445847
69	0x3fa4da600c6be6bf	0.040728570476813435
70	0x3fae96adf7b14c1b	0.059743343816670534
71	0xbf91fa372bfa12a5	-0.01755605894006131
72	0x3fc477b97c13ee8f	0.15990370329369738
73	0x3fadcfe1d80db126	0.05822664034244189
74	0xbfc54c683fb7fc97	-0.1663942633749442
75	0x3f91906b1452bdb4	0.01715247451346409
76	0xbf98de01bf84eedb	-0.02428438884201865
77	0x3fb9ba3f49b0a699	0.10049815701554578
78	0x3fb3ae791bb76cd0	0.07688099791214431
79	0xbfaf604d893a2b97	-0.06128160762917572
80	0xbf9fe3d040177ee9	-0.031142476951457807
81	0x3fc93d7c9258bf1b	0.1971889223655062
82	0xbfc5216c51d93a48	-0.16508249279509557
83	0xbfa4865c4e2dafea	-0.04008758978201839
84	0x3f9b6090208c91ec	0.026735546099318983
85	0x3fbbe68410c9c432	0.10898614320628111
86	0xbfc08bf78af6c98d	-0.1292714527640552
87	0x3fb4bf1716e28eb2	0.08104080494609425
88	0x3fc5cc4d737158d3	0.1702973188100204
89	0x3fc67d6f6a3b9c1a	0.17570297896529113
90	0x3f586faf66cac0dc	0.001491471567685968
91	0x3fa44c9771a7af1c	0.03964684736624077
92	0xbfa523e0d95fc37e	-0.04128935483448169
93	0xbfc6358bb07a69d5	-0.1735090839109278
94	0x3fbd2b8c582e5b57	0.11394574311121396
95	0xbfb763b4c7f23875	-0.09136514550684345
96	0xbf97f507ff492fad	-0.023395657497800638
97	0x3f9754e56b76cda7	0.02278479069145836
98	0x3f907d13db3f559d	0.01610213304214413
99	0xbf8b2a9f50713efb	-0.013264889376074054
100	0xbfc25fa5c205dec4	-0.1435439298036184
101	0x3f722ab2c1f628c8	0.004435251495474364
102	0x3f8b7490a2b52048	0.013405923810424394
103	0xbf9b90b59d6e21e4	-0.026919210180070055
104	0x3fb6ba0ced5a95d3	0.08877640528461166
105	0xbfa596cdb664e3c7	-0.0421661648892449
106	0xbfa242bac295570d	-0.035665355923511034
107	0xbfd0150e387fa985	-0.2512851287598539
108	0xbfb7c44b9cad31c6	-0.09283897948370798
109	0x3f7497eb07643bea	0.005027692872558534
110	0x3fb7bf1f5c4654b8	0.09276004793931036
111	0xbfb85aa1845f82fd	-0.09513291818394616
112	0x3fc9ba3b7b167659	0.2009958601965305
113	0x3f9f0a5028394980	0.030312778906883775
114	0xbfb64a61feb11d47	-0.08707249134123628
115	0xbfc17c653bcb28ae	-0.13660874766930448
116	0xbfb77a6c349dcdfb	-0.09171177181797667
117	0x3fae1e2d8b8ef417	0.058823989187182395
118	0xbfb8b5fa19c3cdc6	-0.09652674798035496
119	0xbfc38c7ec066a6f3	-0.15272507090167373
120	0x3fc4f72c7dbfa706	0.1637931455618899
121	0x3fbe1c137cebc0b4	0.11761590766741642
122	0xbfc5de8c19d4c9a1	-0.1708541036728777
123	0x3fa5639c65a20eb6	0.04177559605252894
124	0x3f8fb60b9b1739df	0.01548394267129266
125	0x3fb83d0fa8e7d5c1	0.09468171952888495
126	0x3fb703d169f52345	0.08990200840811464
127	0x3fb8856aa69095f4	0.09578577581904552
128	0xbfa279afc98d0345	-0.03608464560830397
129	0x3fbdd9856911fffc	0.11660035910790606
130	0xbf7399d052e638c8	-0.004785360112135879
131	0x3faf6308b4749b81	0.061302444484957704
132	0xbfbe119f8fadf639	-0.11745641000558117
133	0xbfaf1963d6616e02	-0.06074058525038241
134	0x3f9a8bc246b989cf	0.025923762861916274
135	0xbfcbd41788147dcf	-0.21741003174336845
136	0xbfb5c8cf19d1efe1	-0.08509535198567121
137	0x3fb831fd553ded9e	0.09451278048611875
138	0xbfd8bf810b7f134b	-0.3866884815472999
139	0x3f9cb9d9da5c7ab2	0.028052715256417123
140	0x3f751ec5e3540435	0.005156300544741523
141	0xbfbcbc153dd2ca23	-0.11224491843567157
142	0xbf87261562c40674	-0.011303107334700281
143	0x3f8a6a85a75858f5	0.012898487252681149
144	0x3fc01510dcd68261	0.12564287932493115
145	0x3fbc4196c04f392a	0.11037580676131556
146	0x3f99d2db372900d8	0.025218415490827123
147	0xbfcaedcccdfdff2f	-0.21038208063327477
148	0xbfd2611da31ea87b	-0.2871774762121572
149	0xbf84cc624201cfdf	-0.010155456199051059
150	0xbfb2774ef000f02a	-0.07213300094093769
151	0xbfba041a0072f52c	-0.10162508498156758
152	0xbf90203ce2d331b2	-0.01574797758512298
153	0x3facda6957ceef7e	0.056353847473899585
154	0x3fba04d49e27d8b2	0.10163620816442423
155	0xbfb700538e3110a9	-0.08984873029209219
156	0x3fbc9749c5d10e23	0.11168347434527752
157	0x3f9eed8321b5dba1	0.030202912266272034
158	0xbfc5cffadcd84992	-0.17040954383317036
159	0xbf6fece83667a2c2	-0.003897145786357776
160	0xbfb41b039045a94c	-0.07853719970959111
161	0x3fa1dcf02abeddea	0.03488874933048776
162	0x3face1196bf71090	0.056404871396382394
163	0x3fa48249aa283a29	0.04005651666749472
164	0xbfb6c782b013bb63	-0.08898178862339771
165	0x3fd034058cedcc14	0.25317515146815706
166	0x3f8b37c64be15c05	0.013289975348170566
167	0x3f8a167e35ff0dd2	0.012738214514576383
168	0xbfceec839c81366f	-0.24159283773262838
169	0x3fa13b6fb2b351a8	0.033656588138600896
170	0xbfc354424979197d	-0.15100887858916315
171	0xbf9a6b0ed24a25aa	-0.025799018464146485
172	0xbfb0a2fa49ad6e0b	-0.06498684214368937
173	0x3fc78108412fae50	0.18362525160715615
174	0xbfd114f0af368a59	-0.2669030867638518
175	0x3fc79abe8ed9019e	0.18440992331489964
176	0xbfc1c284e712a19e	-0.13874875338411824
177	0x3fb0c32668a2e106	0.06547775320621349
178	0xbf84b76206fbfc76	-0.01011540015997368
179	0x3f7b83efcff66243	0.006717621581082303
180	0xbfc2dfcfe0058a43	-0.14745520056301772
181	0xbfbcd64f5810808f	-0.11264511013041754
182	0x3fc2ab2f24eb6c17	0.14584912588802076
183	0xbfd0ee6b7421ad0b	-0.2645519861313949
184	0x3fc405e74fb8a677	0.15643016235962978
185	0x3faa5d7538c44089	0.05149427717162875
186	0x3fb16b798edca101	0.06804618585431756
187	0x3fbbd40e704e5987	0.1087044738945676
188	0xbfc94d15f7419b4e	-0.19766497204838135
189	0x3fc62714bb641ee0	0.17306765699344506
190	0x3fc02b8d3d55601f	0.12632909292983727
191	0xbfad2db7b1fab62b	-0.056989422298425595
192	0xbfb9ec1ea0deb58e	-0.10125914981354908
193	0xbfc2bb755478615f	-0.14634577393077117
194	0x3fb5a15d13c1dbf0	0.0844934628711227
195	0xbfb0636bcfe7784f	-0.0640170462206424
196	0x3f93efdbac9f8767	0.01946967354877618
197	0x3fa08136644a2cdf	0.03223581289520338
198	0x3fb57932da93516f	0.08388059459986662
199	0xbfcb3bfb87bfe3cb	-0.21276802185437158
200	0x3fa7103e41fe95fb	0.0450458007392562
201	0x3f94627a7827a22f	0.01990691526762783
202	0x3fa622d6838accce	0.04323454242457957
203	0xbfa33565681110aa	-0.037516755059671184
204	0xbfd2cf604088d01b	-0.293907225629711
205	0x3fba9b2e9d0dd494	0.10393039068533688
206	0xbfcb8b8f02e08784	-0.21519649162751986
207	0x3fb77937b6aec566	0.09169338426615567
208	0xbfc14f26a5e6b9e8	-0.13522799587867884
209	0xbfa505c9407a7ba1	-0.04105976974573556
210	0xbf972313df61d04c	-0.022594748028908193
211	0x3fbdfe2562298f60	0.11715921064893342
212	0xbf8b0c0a74ffff30	-0.013206559844547522
213	0x3fb8a173c90eb2b7	0.09621356638553889
214	0xbf9e2664cc6633a7	-0.029443335509813953
215	0xbf9ce83183cd3960	-0.02822949759438964
216	0xbfbca20fed2e5063	-0.11184787312078152
217	0xbfcc1db95f1717fa	-0.2196571077640213
218	0x3f8c0b4735ef0a02	0.013693386395861932
219	0xbf9616af199e90ef	-0.021570907534297964
220	0xbfc8c1f8f16563b8	-0.1934195688907303
221	0xbfc25e782634f831	-0.14350797524997597
222	0x3fc5528f23dec3b0	0.1665820050380069
223	0xbfaa22d7b5efec8b	-0.05104707809365391
224	0x3f6643d4d5116be3	0.002717891395645365
225	0xbfc3f5fb9eeba9ef	-0.1559443021754556
226	0xbfa66eaf42f066fb	-0.04381320659758888
227	0xbf9f43c82cdf2ee7	-0.030532005060918712
228	0x3fb42f6836f0387d	0.07884837476032831
229	0xbfc20130fdc54cc7	-0.14066135779521557
230	0x3fca903371bab982	0.2075256638831427
231	0x3fc41825b3549ce0	0.15698691612599358
232	0xbfaa66272a2f55d1	-0.0515606154437297
233	0x3faaa86bc4492ca0	0.05206619998042439
234	0xbf9ff4cb35fb579a	-0.031207251710689478
235	0xbfb0df8b224737ae	-0.0659110029875751
236	0xbfbb7c96ea87fd7d	-0.10736983514651928
237	0xbfcaf88272129bb0	-0.2107089097018764
238	0xbfbab033ce1361e2	-0.10425113469262429
239	0xbfd199554a9eb61d	-0.2749837139807328
240	0xbfb868ae0cd37e47	-0.09534728825701065
241	0x3fd116b1c15161b7	0.26701015356732277
242	0xbf9e15e4409e8f05	-0.02938038486867269
243	0x3fa278ce6a620595	0.036077929006761135
244	0xbfb24f0b36cd9ed6	-0.0715186127468955
245	0xbfb54d724ccaac0a	-0.08321298956677495
246	0x3fc86f7118d478f1	0.19090093338395023
247	0x3f9d8a544a515049	0.028847996746052016
248	0x3f82b212cd3d576d	0.009128710640350335
249	0xbfc09283dddc956b	-0.129471286135565
250	0xbfcf0a09a4d7cda5	-0.242493825425851
251	0xbfc8aa345d7b7ffd	-0.19269423069545147
252	0xbf708e9d487442af	-0.004042257677853086
253	0x3fc960bb67f8df24	0.19826452805295347
254	0x3f915c9275a018a8	0.016954697064669816
255	0xbfb2a47ec0af4a72	-0.07282249645440134
